…
    File "/home/workfish/miniconda3/envs/tf/lib/python3.9/site-packages/keras/src/backend.py", line 5809, in binary_crossentropy
        return tf.nn.sigmoid_cross_entropy_with_logits(
    ValueError: `logits` and `labels` must have the same shape, received ((None, None, None, 2) vs (None,)).
Model: "model"
__________________________________________________________________________________________________
 Layer (type)                Output Shape                 Param #   Connected to
==================================================================================================
 input_1 (InputLayer)        [(None, 240, 320, 3)]        0         []
 conv2d (Conv2D)             (None, 240, 320, 64)         1792      ['input_1[0][0]']
 conv2d_1 (Conv2D)           (None, 240, 320, 64)         36928     ['conv2d[0][0]']
 max_pooling2d (MaxPooling2  (None, 120, 160, 64)         0         ['conv2d_1[0][0]']
 D)
 conv2d_2 (Conv2D)           (None, 120, 160, 128)        73856     ['max_pooling2d[0][0]']
 conv2d_3 (Conv2D)           (None, 120, 160, 128)        147584    ['conv2d_2[0][0]']
 max_pooling2d_1 (MaxPoolin  (None, 60, 80, 128)          0         ['conv2d_3[0][0]']
 g2D)
 conv2d_4 (Conv2D)           (None, 60, 80, 256)          295168    ['max_pooling2d_1[0][0]']
 conv2d_5 (Conv2D)           (None, 60, 80, 256)          590080    ['conv2d_4[0][0]']
 max_pooling2d_2 (MaxPoolin  (None, 30, 40, 256)          0         ['conv2d_5[0][0]']
 g2D)
 conv2d_6 (Conv2D)           (None, 30, 40, 512)          1180160   ['max_pooling2d_2[0][0]']
 conv2d_7 (Conv2D)           (None, 30, 40, 512)          2359808   ['conv2d_6[0][0]']
 dropout (Dropout)           (None, 30, 40, 512)          0         ['conv2d_7[0][0]']
 max_pooling2d_3 (MaxPoolin  (None, 15, 20, 512)          0         ['dropout[0][0]']
 g2D)
 conv2d_8 (Conv2D)           (None, 15, 20, 1024)         4719616   ['max_pooling2d_3[0][0]']
 conv2d_9 (Conv2D)           (None, 15, 20, 1024)         9438208   ['conv2d_8[0][0]']
 dropout_1 (Dropout)         (None, 15, 20, 1024)         0         ['conv2d_9[0][0]']
 up_sampling2d (UpSampling2  (None, 30, 40, 1024)         0         ['dropout_1[0][0]']
 D)
 conv2d_10 (Conv2D)          (None, 30, 40, 512)          2097664   ['up_sampling2d[0][0]']
 concatenate (Concatenate)   (None, 30, 40, 1024)         0         ['dropout[0][0]',
                                                                     'conv2d_10[0][0]']
 conv2d_11 (Conv2D)          (None, 30, 40, 512)          4719104   ['concatenate[0][0]']
 conv2d_12 (Conv2D)          (None, 30, 40, 512)          2359808   ['conv2d_11[0][0]']
 up_sampling2d_1 (UpSamplin  (None, 60, 80, 512)          0         ['conv2d_12[0][0]']
 g2D)
 conv2d_13 (Conv2D)          (None, 60, 80, 256)          524544    ['up_sampling2d_1[0][0]']
 concatenate_1 (Concatenate  (None, 60, 80, 512)          0         ['conv2d_5[0][0]',
 )                                                                   'conv2d_13[0][0]']
 conv2d_14 (Conv2D)          (None, 60, 80, 256)          1179904   ['concatenate_1[0][0]']
 conv2d_15 (Conv2D)          (None, 60, 80, 256)          590080    ['conv2d_14[0][0]']
 up_sampling2d_2 (UpSamplin  (None, 120, 160, 256)        0         ['conv2d_15[0][0]']
 g2D)
 conv2d_16 (Conv2D)          (None, 120, 160, 128)        131200    ['up_sampling2d_2[0][0]']
 concatenate_2 (Concatenate  (None, 120, 160, 256)        0         ['conv2d_3[0][0]',
 )                                                                   'conv2d_16[0][0]']
 conv2d_17 (Conv2D)          (None, 120, 160, 128)        295040    ['concatenate_2[0][0]']
 conv2d_18 (Conv2D)          (None, 120, 160, 128)        147584    ['conv2d_17[0][0]']
 up_sampling2d_3 (UpSamplin  (None, 240, 320, 128)        0         ['conv2d_18[0][0]']
 g2D)
 conv2d_19 (Conv2D)          (None, 240, 320, 64)         32832     ['up_sampling2d_3[0][0]']
 concatenate_3 (Concatenate  (None, 240, 320, 128)        0         ['conv2d_1[0][0]',
 )                                                                   'conv2d_19[0][0]']
 conv2d_20 (Conv2D)          (None, 240, 320, 64)         73792     ['concatenate_3[0][0]']
 conv2d_21 (Conv2D)          (None, 240, 320, 64)         36928     ['conv2d_20[0][0]']
 conv2d_22 (Conv2D)          (None, 240, 320, 3)          1731      ['conv2d_21[0][0]']
 conv2d_23 (Conv2D)          (None, 240, 320, 2)          56        ['conv2d_22[0][0]']
==================================================================================================
Total params: 31033467 (118.38 MB)
Trainable params: 31033467 (118.38 MB)
Non-trainable params: 0 (0.00 Byte)
__________________________________________________________________________________________________
None
Model: "model"
__________________________________________________________________________________________________
 Layer (type)                Output Shape                 Param #   Connected to
==================================================================================================
 input_1 (InputLayer)        [(None, 240, 320, 3)]        0         []
 conv2d (Conv2D)             (None, 240, 320, 64)         1792      ['input_1[0][0]']
 conv2d_1 (Conv2D)           (None, 240, 320, 64)         36928     ['conv2d[0][0]']
 max_pooling2d (MaxPooling2  (None, 120, 160, 64)         0         ['conv2d_1[0][0]']
 D)
 conv2d_2 (Conv2D)           (None, 120, 160, 128)        73856     ['max_pooling2d[0][0]']
 conv2d_3 (Conv2D)           (None, 120, 160, 128)        147584    ['conv2d_2[0][0]']
 max_pooling2d_1 (MaxPoolin  (None, 60, 80, 128)          0         ['conv2d_3[0][0]']
 g2D)
 conv2d_4 (Conv2D)           (None, 60, 80, 256)          295168    ['max_pooling2d_1[0][0]']
 conv2d_5 (Conv2D)           (None, 60, 80, 256)          590080    ['conv2d_4[0][0]']
 max_pooling2d_2 (MaxPoolin  (None, 30, 40, 256)          0         ['conv2d_5[0][0]']
 g2D)
 conv2d_6 (Conv2D)           (None, 30, 40, 512)          1180160   ['max_pooling2d_2[0][0]']
 conv2d_7 (Conv2D)           (None, 30, 40, 512)          2359808   ['conv2d_6[0][0]']
 dropout (Dropout)           (None, 30, 40, 512)          0         ['conv2d_7[0][0]']
 max_pooling2d_3 (MaxPoolin  (None, 15, 20, 512)          0         ['dropout[0][0]']
 g2D)
 conv2d_8 (Conv2D)           (None, 15, 20, 1024)         4719616   ['max_pooling2d_3[0][0]']
 conv2d_9 (Conv2D)           (None, 15, 20, 1024)         9438208   ['conv2d_8[0][0]']
 dropout_1 (Dropout)         (None, 15, 20, 1024)         0         ['conv2d_9[0][0]']
 up_sampling2d (UpSampling2  (None, 30, 40, 1024)         0         ['dropout_1[0][0]']
 D)
 conv2d_10 (Conv2D)          (None, 30, 40, 512)          2097664   ['up_sampling2d[0][0]']
 concatenate (Concatenate)   (None, 30, 40, 1024)         0         ['dropout[0][0]',
                                                                     'conv2d_10[0][0]']
 conv2d_11 (Conv2D)          (None, 30, 40, 512)          4719104   ['concatenate[0][0]']
 conv2d_12 (Conv2D)          (None, 30, 40, 512)          2359808   ['conv2d_11[0][0]']
 up_sampling2d_1 (UpSamplin  (None, 60, 80, 512)          0         ['conv2d_12[0][0]']
 g2D)
 conv2d_13 (Conv2D)          (None, 60, 80, 256)          524544    ['up_sampling2d_1[0][0]']
 concatenate_1 (Concatenate  (None, 60, 80, 512)          0         ['conv2d_5[0][0]',
 )                                                                   'conv2d_13[0][0]']
 conv2d_14 (Conv2D)          (None, 60, 80, 256)          1179904   ['concatenate_1[0][0]']
 conv2d_15 (Conv2D)          (None, 60, 80, 256)          590080    ['conv2d_14[0][0]']
 up_sampling2d_2 (UpSamplin  (None, 120, 160, 256)        0         ['conv2d_15[0][0]']
 g2D)
 conv2d_16 (Conv2D)          (None, 120, 160, 128)        131200    ['up_sampling2d_2[0][0]']
 concatenate_2 (Concatenate  (None, 120, 160, 256)        0         ['conv2d_3[0][0]',
 )                                                                   'conv2d_16[0][0]']
 conv2d_17 (Conv2D)          (None, 120, 160, 128)        295040    ['concatenate_2[0][0]']
 conv2d_18 (Conv2D)          (None, 120, 160, 128)        147584    ['conv2d_17[0][0]']
 up_sampling2d_3 (UpSamplin  (None, 240, 320, 128)        0         ['conv2d_18[0][0]']
 g2D)
 conv2d_19 (Conv2D)          (None, 240, 320, 64)         32832     ['up_sampling2d_3[0][0]']
 concatenate_3 (Concatenate  (None, 240, 320, 128)        0         ['conv2d_1[0][0]',
 )                                                                   'conv2d_19[0][0]']
 conv2d_20 (Conv2D)          (None, 240, 320, 64)         73792     ['concatenate_3[0][0]']
 conv2d_21 (Conv2D)          (None, 240, 320, 64)         36928     ['conv2d_20[0][0]']
 conv2d_22 (Conv2D)          (None, 240, 320, 3)          1731      ['conv2d_21[0][0]']
 conv2d_23 (Conv2D)          (None, 240, 320, 2)          56        ['conv2d_22[0][0]']
==================================================================================================
Total params: 31033467 (118.38 MB)
Trainable params: 31033467 (118.38 MB)
Non-trainable params: 0 (0.00 Byte)
__________________________________________________________________________________________________
None
Found 0 images belonging to 1 classes.
Found 0 images belonging to 1 classes.
…
